carer_emotion_cnn.pt (torch, 10976 bytes, 4 tensors)

net.0.weight f4 [32, 1, 3]
0	0xbee35763	-0.44402608
1	0x3e008986	0.12552461
2	0x3bd013f8	0.0063500367
3	0xbec613da	-0.3868702
4	0x3ed537f9	0.41644266
5	0xbe93aab6	-0.2884118
6	0xbea86bc5	-0.32894722
7	0x3f00b22f	0.50271887
8	0xbeb801b3	-0.35938796
9	0xbec42c8a	-0.3831523
10	0x3f07fea7	0.53122944
11	0x3f05c630	0.52255535
12	0xbec36553	-0.38163242
13	0x3e33805c	0.17529434
14	0x3e947cba	0.2900141
15	0x3eb3b9ff	0.3510284
16	0xbeb8b5b2	-0.36076123
17	0xbe348416	-0.17628512
18	0xbe5c7f24	-0.21532875
19	0xbe37ffce	-0.17968675
20	0xbf066d45	-0.5251048
21	0x3d065550	0.032796204
22	0x3e0b3e84	0.13598067
23	0xbcc77511	-0.024347814
24	0x3e2643c6	0.16236791
25	0x3e5ff165	0.21869428
26	0xbf137317	-0.5759749
27	0x3e7386d5	0.23781903
28	0x3e849d6b	0.2590135
29	0xbe23e6f1	-0.16006066
30	0xbe7a9cc4	-0.24473864
31	0xbf0d09f4	-0.5509331
32	0xbef2d6a8	-0.47429395
33	0x3e4cee6e	0.20012829
34	0x3e3f68b5	0.18692286
35	0xbef0dcad	-0.47043362
36	0xbe733bf5	-0.2375334
37	0x3ee5defa	0.4489668
38	0xbe099bc9	-0.13438334
39	0xbcdb921d	-0.02680307
40	0xbf057648	-0.5213361
41	0x3f0aa499	0.54157406
42	0x3ec44189	0.3833125
43	0xbecb843c	-0.39749324
44	0x3e98545e	0.29751867
45	0xbece0dd8	-0.40244937
46	0xbe349366	-0.17634353
47	0x3f0bac92	0.54560196
48	0x3ed5c762	0.4175368
49	0xbe17fde9	-0.14842953
50	0xbe34a139	-0.17639627
51	0xbe550b38	-0.20805061
52	0x3ee2c297	0.44289085
53	0xbe9e36f7	-0.3090131
54	0xbe92b0c6	-0.28650492
55	0xbec0d210	-0.37660265
56	0x3ef0d3e2	0.47036654
57	0x3e9aec6d	0.30258504
58	0xbf0964c3	-0.53669375
59	0x3f0e5b53	0.556081
60	0xbef2aeb9	-0.47398928
61	0xbf034aeb	-0.5128619
62	0x3ed8e05f	0.42358682
63	0x3eddc4da	0.43314248
64	0x3ec04e47	0.3755972
65	0x3c9025c2	0.01759613
66	0x3ea449e5	0.32087627
67	0x3f106ea9	0.56418854
68	0x3e51915e	0.2046561
69	0x3f0ca14d	0.54933625
70	0xbf0d37a9	-0.55163056
71	0x3eefff7d	0.4687461
72	0x3ebc771d	0.36809626
73	0x3e90f0fa	0.2830885
74	0xbeb45a62	-0.35225207
75	0xbeaecf0a	-0.34142333
76	0xbe262c52	-0.16227844
77	0x3d8a09d8	0.06740159
78	0xbd345c47	-0.044033315
79	0x3f05bfe6	0.5224594
80	0x3c1dc871	0.0096303085
81	0x3e357966	0.17722091
82	0xbeb33fe2	-0.35009676
83	0x3e1f93de	0.1558375
84	0x3ef1a1f2	0.47193867
85	0xbee78619	-0.45219496
86	0x3ebcceb9	0.36876467
87	0x3e9e7b54	0.30953467
88	0xbcf314cd	-0.029673005
89	0xbcfc7b35	-0.030820468
90	0xbe2696ca	-0.16268459
91	0xbedfe6a4	-0.43730652
92	0xbdac5150	-0.08413947
93	0xbe57f47d	-0.21089359
94	0x3e6425d3	0.22280054
95	0x3e9456ff	0.28972623

net.0.bias f4 [32]
0	0xbe5ab96f	-0.213598
1	0x3eea8aca	0.45809013
2	0x3dbd4b74	0.09242907
3	0x3edea74a	0.43487006
4	0xbeaea28e	-0.34108394
5	0x3eedb337	0.46425793
6	0x3eaa6c19	0.33285597
7	0xbce19c4e	-0.027540352
8	0x3ef36cbc	0.47543895
9	0x3efef9e0	0.49800014
10	0xbeeed1e7	-0.46644518
11	0x3e963a98	0.29341578
12	0xbdf1b732	-0.1180252
13	0x3e61aa3b	0.22037594
14	0x3eeb04da	0.4590214
15	0x3e566f9b	0.20941012
16	0x3edd3a2d	0.43208447
17	0xbe0668ac	-0.13125867
18	0x3ed5e42d	0.41775647
19	0x3e80a475	0.2512547
20	0xbe5253a1	-0.20539714
21	0xbf0be3c4	-0.5464442
22	0x3f07b647	0.5301251
23	0xbee1d06a	-0.4410432
24	0x3e9d17fc	0.3068236
25	0xbdfafa74	-0.122548014
26	0xbeddccfe	-0.4332046
27	0x3ece5333	0.4029785
28	0x3ea063ac	0.31326044
29	0xbe86b500	-0.26309967
30	0x3ece8fc2	0.40344054
31	0x3e857d37	0.26072094

net.4.weight f4 [8, 256]
0	0xbcfc6303	-0.030808931
1	0xbcc1b918	-0.02364783
2	0xbd142a68	-0.036173254
3	0x3cbc3ca0	0.022978127
4	0xbcbb58ac	-0.02286943
5	0x3c52c040	0.012863219
6	0xba02fe00	-0.00049969554
7	0x3ca4823c	0.020081632
8	0xbcac1ab5	-0.021008829
9	0xbd4c4fcd	-0.04988079
10	0xbb8d0192	-0.0043031657
11	0xbd01034d	-0.03149729
12	0x3d6fe9e9	0.058572683
13	0x3d32612b	0.043549698
14	0x3bcef501	0.006315828
15	0xbd5d31fc	-0.054002747
16	0xbc9e89db	-0.019352844
17	0x3d4f570c	0.050620124
18	0xbd5eaa9b	-0.05436192
19	0x3d73fd10	0.05956751
20	0x3d7c04d9	0.06152806
21	0x3be0890e	0.0068522757
22	0x3d19ba42	0.037531145
23	0x3c4fd995	0.012686153
24	0x3d89ba03	0.06724932
25	0x3bd3c992	0.006463238
26	0xbd199b0e	-0.037501387
27	0x3d643a89	0.055719886
28	0x3d56b909	0.052422557
29	0xbd1e9ba7	-0.03872266
30	0x3d032e43	0.03202654
31	0x3cd32450	0.025774151
32	0xbd3248ba	-0.04352639
33	0x3d83b4a7	0.06430941
34	0x3b2083de	0.0024492661
35	0x3d744aab	0.05964152
36	0x3d32aa3e	0.043619387
37	0x3d16bd3c	0.03680156
38	0xbccc03e8	-0.024904206
39	0x3d2b753e	0.041859858
40	0x3d204a1f	0.039133187
41	0x3b441865	0.0029921767
42	0xbb206fa9	-0.0024480617
43	0xbc529705	-0.012853389
44	0xbcf7f8f5	-0.03027008
45	0x3ba717c3	0.005099268
46	0xbbf43966	-0.0074531315
47	0x3cd7fd15	0.026365796
48	0x3c385652	0.011251049
49	0x3bc3b9f5	0.0059730955
50	0xbd4c4ed3	-0.04987986
51	0x3b6cbb26	0.0036122291
52	0x3d636e28	0.055524975
53	0xbc9cf3c8	-0.019159213
54	0xbccd091f	-0.025028763
55	0xbd11322e	-0.035448246
56	0x3ccebd42	0.02523673
57	0xbc7bfa90	-0.015379563
58	0xbb34ed09	-0.0027607104
59	0x3cd84daf	0.02640423
60	0x3d7f7d0e	0.06237512
61	0x3d33dfb4	0.04391451
62	0x3a9e1bad	0.0012062691
63	0x3d4149cc	0.04718952
64	0xbcff5213	-0.031167066
65	0xbc34dcd3	-0.011038977
66	0x3d667516	0.056264006
67	0x3d06d6ba	0.032919623
68	0x3cee3179	0.029076325
69	0xbd62498e	-0.05524593
70	0x3cfc18de	0.030773576
71	0xbd58e5c7	-0.052953508
72	0x3cd72860	0.02626437
73	0xbd41a1dd	-0.047273505
74	0xbd0cb19a	-0.03434906
75	0x3d856ee6	0.06515293
76	0xbcde3418	-0.02712445
77	0x3d3a9698	0.045553774
78	0xbc0e831a	-0.008698249
79	0xbbb5601b	-0.0055351383
80	0x3c9bb1dc	0.019005708
81	0xbc6ac4f8	-0.014329188
82	0x3c8cce10	0.017188102
83	0xbd774e96	-0.06037768
84	0xbd6a4b78	-0.05720088
85	0x3c908370	0.0176408
86	0xbd57c862	-0.052681334
87	0xbca83c0c	-0.020536445
88	0x3d1cc97f	0.0382781
89	0x3cca3140	0.024681687
90	0x3cc9d848	0.024639264
91	0x3b6ba041	0.0035953673
92	0xbd140135	-0.036133964
93	0xbd0e1714	-0.034689978
94	0x3d699fb0	0.057037055
95	0xbcded341	-0.027200343
96	0x3ce8ce94	0.028418817
97	0x3cdc54da	0.02689593
98	0x3cdaf597	0.026728434
99	0x3c895831	0.016765686
100	0xbcac1276	-0.021004897
101	0x3d7675d6	0.06017097
102	0x3d352ecd	0.044234086
103	0xba843ed3	-0.0010089524
104	0xbd1f2637	-0.038854804
105	0xbd28da5c	-0.04122387
106	0x3d3dedc1	0.046369318
107	0x3d29a885	0.04142048
108	0x3d01076f	0.03150123
109	0x3d49f365	0.049304385
110	0xbcff2136	-0.031143766
111	0x3cb30309	0.021852033
112	0xb7966ba0	-1.793151e-05
113	0xbd3952e6	-0.045245074
114	0xbcafa2cf	-0.021439938
115	0xbd6a0c78	-0.057140797
116	0xbc2f438a	-0.010697255
117	0x3d2e6547	0.042577054
118	0x3c912b3e	0.017720815
119	0x3d333554	0.04375203
120	0x3b086b2e	0.0020815837
121	0xbd4f2bad	-0.05057876
122	0x3cb34d72	0.021887515
123	0x3d3860ca	0.04501418
124	0xbc876859	-0.016529249
125	0x3d61013b	0.054932814
126	0xbd43096b	-0.047616404
127	0x3d4a2301	0.04934979
128	0x3d75b87f	0.059990402
129	0x3c265afe	0.01015353
130	0x3d616927	0.05503192
131	0x3d865fe7	0.06561261
132	0xbcf77125	-0.030205319
133	0xbd0342b3	-0.03204603
134	0x3d5c684f	0.053810414
135	0x3bc51df5	0.006015534
136	0x3d6dcf21	0.05805886
137	0xbc99ae54	-0.018759884
138	0xbc8a285c	-0.016864948
139	0xbd5da7e2	-0.054115184
140	0x3cae80d8	0.021301672
141	0xbc66ea98	-0.014094017
142	0x3d49659e	0.049169175
143	0xbd38cb58	-0.0451158
144	0xbd3ceac1	-0.046122316
145	0x3d3ef5bc	0.04662107
146	0x3d87c627	0.066295914
147	0xbd01c30e	-0.03168016
148	0x3d886ee3	0.06661775
149	0xbc48ce03	-0.012256148
150	0x3d6f47f6	0.058418237
151	0xbd4eeef0	-0.050520837
152	0xbd3b66ac	-0.045752212
153	0x3c8d021a	0.017212916
154	0xbd2006d9	-0.03906903
155	0xbd0bcae1	-0.034129027
156	0x3c1b8336	0.009491732
157	0xbc873e33	-0.016509151
158	0x3b4d701f	0.0031347347
159	0x3d7b834a	0.061404504
160	0x3d084a40	0.033273935
161	0xbcc2856c	-0.023745261
162	0xbc91e76c	-0.017810546
163	0xbc24b950	-0.010053948
164	0x3bd19250	0.0063956156
165	0x3d3aff88	0.04565385
166	0x3d05eb38	0.032695025
167	0xbc19b040	-0.0093804
168	0xbceef95b	-0.029171636
169	0x3d314d86	0.043286823
170	0xbcd3f334	-0.025872804
171	0x3c9379d1	0.018002423
172	0xbcc165f0	-0.023608178
173	0xbca92d56	-0.0206515
174	0x3d82592c	0.063646644
175	0x3d675ab2	0.05648298
176	0xbd2c9bdf	-0.042140838
177	0x3d2bf3af	0.04198044
178	0x3b3d86bf	0.0028919426
179	0x3b99a000	0.004688263
180	0xbcdfcc65	-0.027319143
181	0xbcfa4965	-0.030552575
182	0xbc7e3e2a	-0.015517751
183	0xbd5e9101	-0.054337505
184	0xbcfb96ac	-0.030711494
185	0x3d244ba0	0.040111184
186	0xbc572292	-0.013130801
187	0xbd1a85fa	-0.037725426
188	0x3d34b0bd	0.044113863
189	0xbd0ddb31	-0.034632865
190	0x3cf13f71	0.029449197
191	0xbb8a43c0	-0.004219502
192	0x3b5a00a6	0.0033264547
193	0x3c157dc1	0.00912422
194	0x3d0714b7	0.03297874
195	0xbd64d100	-0.05586338
196	0xbbe2a540	-0.006916672
197	0x3c0621bf	0.008186757
198	0x3d3b759d	0.04576646
199	0x3b5a3af4	0.00332993
200	0xbcaf8cb8	-0.021429405
201	0xbd35bdbc	-0.044370398
202	0x3d4c3394	0.049853876
203	0xbd75f95a	-0.060052253
204	0x3d3749dc	0.044748172
205	0x3d69901e	0.057022206
206	0x3c9d71ec	0.019219361
207	0x3d27ad14	0.040936545
208	0x3cd376d4	0.025813498
209	0xbbfcb4dc	-0.00771199
210	0x3cd06797	0.02544002
211	0xbb8a907b	-0.004228649
212	0x3d51eb0a	0.05124954
213	0xbbcc542a	-0.006235619
214	0x3c274e94	0.010211606
215	0x3d57ac5c	0.05265461
216	0x3d60bda1	0.054868344
217	0x3c1f1fc5	0.009712164
218	0x3d61f348	0.05516365
219	0xbc8e6d18	-0.017386004
220	0xbb90b62f	-0.004416249
221	0xbb504760	-0.0031780824
222	0x3d7c2ade	0.06156432
223	0x3c254ec1	0.010089577
224	0xbceedd36	-0.029158216
225	0x3c9e4b14	0.01932291
226	0x3ce6b44b	0.028162142
227	0xbca37b2c	-0.019956194
228	0x3b1af2dd	0.0023643293
229	0xbacf04bf	-0.0015794261
230	0x3c8b7454	0.017023243
231	0x3d64cbca	0.05585841
232	0x3d41951a	0.047261335
233	0x3d6edbe8	0.058315188
234	0x3c15086b	0.009096245
235	0xbc24d811	-0.01006128
236	0xbc30c77c	-0.010789748
237	0x3cbc9fb0	0.023025364
238	0x3d43157d	0.047627915
239	0x3d122772	0.03568215
240	0xbc05508c	-0.00813688
241	0xbd54c277	-0.05194327
242	0xbd5e962a	-0.054342426
243	0xbcab72e0	-0.0209288
244	0xbd11c020	-0.035583615
245	0x3c682576	0.014169088
246	0xbd227f8e	-0.039672427
247	0x3bd87608	0.0066058673
248	0x3d0d64bb	0.034519892
249	0xbc632805	-0.013864522
250	0x3d52b75b	0.051444393
251	0xbccd7914	-0.025082149
252	0xbac1d9c4	-0.0014789631
253	0xbcff9842	-0.031200532
254	0x3c0e90a5	0.008701478
255	0x3994767e	0.00028317043

net.4.bias f4 [8]
0	0x3d217de8	0.039426714
1	0x3cb120e8	0.021622136
2	0xbcd0fc4f	-0.025510935
3	0xbd1dd445	-0.038532514
4	0xbba2335f	-0.0049499716
5	0xba3782f2	-0.00070004084
6	0x3b69b8f7	0.0035663226
7	0x3c34eaf5	0.011042346
